…
2018-09-16 12:49:48.139384: I tensorflow/core/common_runtime/gpu/gpu_device.cc:984] 0:   N 
2018-09-16 12:49:48.149455: I tensorflow/core/common_runtime/gpu/gpu_device.cc:1097] Created TensorFlow device (/job:localhost/replica:0/task:0/device:GPU:0 with 7095 MB memory) -> physical GPU (device: 0, name: Tesla M60, pci bus id: 0000:00:1e.0, compute capability: 5.2)
Train with  7825
_________________________________________________________________
Layer (type)                 Output Shape              Param #   
=================================================================
conv1d_1 (Conv1D)            (None, 1168, 100)         102400    
_________________________________________________________________
max_pooling1d_1 (MaxPooling1 (None, 292, 100)          0         
_________________________________________________________________
bidirectional_1 (Bidirection (None, 200)               160800    
_________________________________________________________________
dropout_1 (Dropout)          (None, 200)               0         
_________________________________________________________________
dense_1 (Dense)              (None, 1)                 201       
_________________________________________________________________
activation_1 (Activation)    (None, 1)                 0         
=================================================================
Total params: 263,401
Trainable params: 263,401
Non-trainable params: 0
_________________________________________________________________
None
_________________________________________________________________
Layer (type)                 Output Shape              Param #   
=================================================================
conv1d_1 (Conv1D)            (None, 1168, 100)         102400    
_________________________________________________________________
max_pooling1d_1 (MaxPooling1 (None, 292, 100)          0         
_________________________________________________________________
bidirectional_1 (Bidirection (None, 200)               160800    
_________________________________________________________________
dropout_1 (Dropout)          (None, 200)               0         
_________________________________________________________________
dense_1 (Dense)              (None, 1)                 201       
_________________________________________________________________
activation_1 (Activation)    (None, 1)                 0         
=================================================================
Total params: 263,401
Trainable params: 263,401
Non-trainable params: 0
_________________________________________________________________
Epoch 1/10

 100/7825 [..............................] - ETA: 55:29 - loss: 0.6956 - acc: 0.4900
 200/7825 [..............................] - ETA: 31:56 - loss: 0.7009 - acc: 0.4950
 300/7825 [>.............................] - ETA: 24:02 - loss: 0.6939 - acc: 0.5267
…
